ssbic.tflite (tflite, 699712 bytes, 16 tensors)

sequential_2/conv2d_8/BiasAdd/ReadVariableOp f4 [16]
00000000: e30e 82be 9f24 59be 7081 d2be a5e7 11ba
00000010: e1fa 7d3e 3386 0e3e 7c28 9fbe 4aa9 81bd
00000020: e4e7 343e aebc 0a3c b3cb ddbe c1a0 5fbe
00000030: f4f3 2bbe 0f90 7dbe f80e 08be b008 903d
-0.25401983 -0.21205376 -0.41114378 -0.0005565829 0.24802734 0.1391838 -0.31085575 -0.063311175
0.17666584 0.008467836 -0.43319473 -0.21838666 -0.1679228 -0.24761985 -0.1328696 0.07032907

sequential_2/conv2d_9/BiasAdd/ReadVariableOp f4 [32]
00000000: bff6 01be 0f99 0cbe 9150 f6bd d797 6ebe
00000010: fdc9 1bbe 5845 0fbe a689 43be 12c7 19be
00000020: 3f8d dfbd 6477 19be 8681 9cbe 00ed fcbd
00000030: 1998 13be 4354 1dbe 7081 bbbd cb97 8dbe
00000040: eb16 08be b2bd e1bd e8de 3cbe a628 08be
00000050: 923c 28be 741c f4bd 85e9 06be ae67 05be
00000060: def6 10be f30a 2fbe 8bb2 12be ec57 29be
00000070: 0f3f 75be 5b9a 8abe 4ce3 0abe 0543 e2bd
-0.12691782 -0.13730262 -0.120270856 -0.2330011 -0.15213771 -0.13991296 -0.19095477 -0.15017346
-0.109156124 -0.1498695 -0.3056757 -0.12349892 -0.1441349 -0.15364175 -0.091555476 -0.2765487
-0.13289993 -0.1102251 -0.18444407 -0.13296756 -0.16429356 -0.119194895 -0.13175018 -0.13027832
-0.14156672 -0.1709402 -0.14325921 -0.16537446 -0.23949836 -0.2707089 -0.1356327 -0.11047939

sequential_2/conv2d_10/BiasAdd/ReadVariableOp f4 [64]
00000000: 2265 4abc d2e8 93bd 6a9f f83d e2cc 1c3e
00000010: 1e0c 593d 65a9 1c3e eca4 be3d c873 e53c
00000020: 3bbe d63d 88b9 b03d e176 8a3d bdf4 043d
00000030: a627 c3bd 9563 113d 6b08 4cbd 25df 1a3d
00000040: 18fe 3c3e 4ea6 003e 4292 ae3d 22c0 fe3d
00000050: 1a1d d73c 59fe 2c3d 3055 5cbc 04f7 fb3d
00000060: ccd2 e83d a36b 2bbd 51c9 a63b 042f b53d
00000070: 2490 b3bc 918b 1d3e 922e 103e 20b3 233e
00000080: c93a 273e 8004 3cbe 4807 8f3e 5b4f 233e
00000090: e14c 8e3c 1e62 cc3c b062 36bc dbf0 f1bd
000000a0: 800c ba3d 662b 60bc 91ed 213e a25b 5b3e
000000b0: 8664 123d 1777 e83c d63d 593e b88b 7c3d
000000c0: aacc a33d 326a 8f3d dadd 563e 9cdb c83d
000000d0: fb70 d73d f73c 11be e207 90ba 220c 01bd
000000e0: b87c f33d 5c36 6b3d a1e5 e93d 78c0 be3d
000000f0: da4b e43d 5b47 863b b1f0 b6bd f264 62bd
-0.0123532135 -0.07222141 0.12139781 0.15312532 0.05299007 0.15298994 0.093088 0.02800931
0.10485502 0.08629137 0.067609556 0.032459963 -0.09529047 0.03549536 -0.049812716 0.037810463
0.18456304 0.1256344 0.0852399 0.1243899 0.026258994 0.042234752 -0.013448045 0.12302974
0.11368331 -0.041850697 0.0050899168 0.08846858 -0.021919318 0.15385272 0.14080265 0.159863
0.16331019 -0.18361092 0.27935243 0.1594824 0.017370643 0.02494913 -0.011131927 -0.11813518
0.090844154 -0.013682222 0.1581328 0.21421674 0.035740398 0.028377099 0.21214995 0.061656684
0.07998021 0.07002677 0.20983067 0.09807512 0.10519596 -0.14183412 -0.0010988677 -0.03150571
0.118890226 0.057424888 0.11420751 0.09314054 0.1114728 0.0040978617 -0.08932627 -0.05527205

sequential_2/conv2d_11/BiasAdd/ReadVariableOp f4 [128]
00000000: de9e cb3b e2a2 093e 9a90 a7bc a0d3 c9bd
00000010: e388 ebbd e638 803d f4ad 663e e2cf 9a3e
00000020: 80fd 1b3e 62a2 913d 4784 2e3d 2eaf a33d
00000030: f1d8 af3d 6783 d13b 28c5 6b3c dcef 633c
00000040: 7b81 34bd c87c b33d d134 d5bd 77e0 ccbb
00000050: 8d75 1dbd f2f5 89bd c8f8 53bd ba88 d23c
00000060: 621b 523e 4674 e23d 6acf cbbb 7a88 053e
00000070: 4df6 08bd 9b42 78bd 1b1d 13be 3264 d3bd
00000080: 84f9 06bd b8f8 0f3e 21fb 553e 7314 4e3c
00000090: 0d96 d3bc 45b6 d83d f278 edbd c8cc 29bc
000000a0: e057 df3d a579 233e 5bbf f13d 0ead 00bd
000000b0: 72dc 083e ee82 6dbd b6a4 f43d 4727 853d
000000c0: 652c 80bd 265d 7cbc 7bcb 2c3e f634 833e
000000d0: 6447 97bc 69c8 c3bd 8d3c c83c 8716 6e3e
000000e0: 25c2 89bb 5873 f93d 0a1d d6bc 41c2 583d
000000f0: 8614 b3bd 32ab 953d f166 213e 1c6c 0b3e
00000100: 9656 113e 82d2 213e 1219 413e fa0e 28bd
00000110: 03f9 24bd 2536 593e 25ba 7d3d 6a0b 253e
00000120: 6f5c 363e 89d6 fcbc dcd9 d23d 004b 2fbd
00000130: e6f3 043c 7645 67bd ab39 773d b6f7 383c
00000140: f4b8 463e 5b7e d23d 0528 da3d 92fd 9f3d
00000150: bc98 74bd fdbe 843d 6bce 153e c7e4 a53c
00000160: 7f8a c23c 1b73 91bc a0b8 4c3d 9c4b cebb
00000170: a202 c7bb 8266 b73d 11b6 bd3d cc48 ea3d
00000180: 5117 533e 0934 e13d b536 09bd 37ba 10bd
00000190: 9f41 92bd c758 283d 5909 143d 8a62 5c3d
000001a0: 70dd 683e f6f1 14bd 7b8c a93d 1539 e2bd
000001b0: bda3 cf3d d23b aa3b aecb d83d ba75 3b3d
000001c0: fd26 ebbc 1291 503e c5c7 7c3c c321 323d
000001d0: a697 183e 29c8 4c3d 44b4 0a3e 5ac1 3a3e
000001e0: 9df0 06bd a9c3 d93a 2cb6 a83c cfe8 8dbc
000001f0: 312d 403d db07 473e cb95 063e 2fc2 273d
0.006214007 0.13441041 -0.020454694 -0.098548174 -0.115007184 0.062608525 0.22527295 0.30236727
0.15233421 0.0711105 0.04260662 0.07992397 0.085863 0.006393838 0.014390267 0.013912167
-0.044068795 0.087640345 -0.104104646 -0.006252344 -0.038442183 -0.067363635 -0.05175093 0.025699962
0.20518258 0.11057334 -0.006219794 0.13040343 -0.033438016 -0.060610395 -0.14366572 -0.10321845
-0.0329528 0.14059722 0.2089658 0.012578118 -0.025828386 0.1058164 -0.11595334 -0.010363765
0.10905433 0.15964372 0.11804076 -0.031415038 0.13365343 -0.057986192 0.119454786 0.06501632
-0.062584676 -0.015403068 0.16874497 0.25626343 -0.018466659 -0.095597096 0.024442935 0.23250781
-0.004204052 0.12180203 -0.026136894 0.05291963 -0.08744149 0.073080435 0.15761925 0.13615459
0.14193186 0.15802959 0.1885722 -0.041029908 -0.04027654 0.21212061 0.0619451 0.16117635
0.17808698 -0.030864017 0.1029546 -0.042796135 0.008114791 -0.056462727 0.06035773 0.011289528
0.19406492 0.10278007 0.10652164 0.078120366 -0.05971597 0.064817406 0.14629523 0.020250691
0.02374768 -0.017755082 0.04998076 -0.0062956344 -0.006073312 0.08955099 0.09263242 0.11439666
0.20614363 0.10996253 -0.03349944 -0.03533384 -0.071414225 0.04110029 0.036141727 0.05380491
0.22740722 -0.036363564 0.08278748 -0.11046044 0.101386525 0.0051951194 0.10585724 0.04576657
-0.028705114 0.2036784 0.015428488 0.04348923 0.149016 0.049995575 0.13545328 0.1823782
-0.03294431 0.0016614097 0.020594679 -0.017322926 0.046918098 0.1943659 0.13143079 0.040956672

sequential_2/conv2d_8/Conv2D f4 [16, 3, 3, 3]
00000000: 7004 883b 3dd8 1ebe 427b 0fbc 6f4c 493d
00000010: 8201 b53d 2d06 76ba 3011 86be ddb3 17bc
00000020: 6d05 253e 86ec 06bd e894 31bd 902c 0f3d
00000030: fd10 bbbd cf53 19be f076 4dba 1454 afbd
00000040: 5ee8 263e 9b69 40bd 29a9 99bc c1c1 abbd
00000050: a491 433e 4965 2e3d cb58 c13d 7dd9 a3bd
00000060: 2d5e 32be b705 93bc c371 753d eed2 4cbd
00000070: be4c 20bc ab6f fabc 718d 873d e8cb 61be
00000080: db64 12be 7612 803b 0c59 1c3d 4634 75bd
00000090: 4b54 8cbd 8138 43bd 845e 873d 5c87 20be
000000a0: 54c8 28be 711d a73d aded 80bc f17a 553d
000000b0: d128 5cbd a468 32be 48c5 63bc 2641 073e
000000c0: b208 843d 2519 9cbd 90f6 163e b8f8 50bd
000000d0: 1a27 debc 07d3 673d 6d16 1abe 7adf b03d
000000e0: b9b5 04bc 53cb 42bd 9bbd 993c 939f 823d
000000f0: 835b 86bd 9fc0 24be 2f81 6d3d 8d3c 17bc
00000100: c219 fabd 48b6 ae3d 91b2 76bd 15fc a93d
00000110: 0ca9 f33c 4085 05bd 8974 e1bd c3ac 4a3d
00000120: 6d22 8ebd 55cf 023e f856 003b 65ec 8bbd
00000130: 3ec7 4fbc 7357 2c3d 20aa 523b 7c67 6cbc
00000140: 8d17 b13d b019 113d e164 643e 8b32 82bd
00000150: 9b7b 723c d83c 2b3e 5f0f d03d a21f 59bd
00000160: 1a33 5c3e bc47 863e 557f 043e 371d 37be
00000170: f907 02be 2eee 3ebd 54f8 f63d 24e5 e3bc
00000180: eb14 963d 9954 5b3c 4bbd 40bd ac2f 46be
00000190: 7b47 c6be 1fb1 93be 3c2d 04be 26d1 113c
000001a0: 155f 283d b012 823d 2933 d5bd a6b1 f93d
000001b0: 7173 aebd 62e5 b33d f0b3 e0bd aef1 133d
000001c0: 1373 1c3b de45 8cbd b2bd 743d b335 09be
000001d0: 2397 043e 1bcc 0cbd 8af9 51be 98f4 2bbf
000001e0: 121d a73d 12c3 023c 9d23 70be 8405 c0bd
000001f0: a1bd c93d 82a1 8b3d 7167 85bc f768 56bd
00000200: 1a20 f7be 73d9 cabc 144e 763d d865 e2bd
00000210: 6f25 583c 87bc 243e 7802 d2bd 98ae 20be
00000220: 891f 263e 809b cb3d d802 cabd 263f 73bd
00000230: 6879 0dbd 1753 97be 6da9 88be 5939 27be
00000240: 2355 2bbe a04b cbbd 3f48 4a3e d0fd 413d
00000250: d960 c7bd b530 cd3d 3408 1fbe 53eb dc3d
00000260: 97ff 893d 97c3 dbbd b882 de3c 2f5b 1c3d
00000270: f701 05be a57e 0d3d eeff a23d 0529 83bd
00000280: 3f8e a33d 2814 3a3e d3a9 0dbd ba66 973d
00000290: 6764 00be 6bdc ca3b d3b7 4dbe ddc8 16be
000002a0: 7156 da3c 1899 43bd 4ea1 20be 3054 e33d
000002b0: b97f 23be b169 e4bd 78b4 d33a e4a6 003b
000002c0: fd62 fd3d 91f2 fbbd 8632 a0bd 8539 3b3e
000002d0: 4afd 18be 82c9 cdbd 635f ad3d ad96 0fbc
000002e0: 2bc8 273d 14dd 8c3e d990 093e ce63 8d3e
000002f0: a35f 963d b5cb 17be ddfc 6a3b b9a5 833d
00000300: ea5f db3c 08d8 f8bd 587b 4c3d c2d3 423c
00000310: 6c00 b0bd 9c53 9bbd b750 3a3c e683 573d
00000320: d3bf 47be 97dd 27bc 964d 8d3d ff3c cabb
00000330: 8b94 0cbd e1ac 533d 0042 48be 377d b43d
00000340: cb56 cdbd 6e24 a23d c0b0 06be 235e 25be
00000350: 312a 3abe d132 e03d 8248 9bbc 71f6 19be
00000360: 0d56 25bb 1c60 9bbc 16e2 fb3c 2b34 06bd
00000370: bd6e 5cbe d873 2b3e 7292 213d aa8b 70be
00000380: 3fe9 fc3d c767 0e3e 7ae3 17be 7bf5 d63c
00000390: 3b2a 1ebe 64da 82be 110a 703e a045 c7bd
000003a0: 90ca 7fbe 48a5 3fbe e5af 1c3e 55fd d3bd
000003b0: ba65 273b 2599 1e3d 1438 36be de8b af3d
000003c0: bac0 78be 9c33 b9be 28ef 66bd f626 5c3d
000003d0: 9f7f 673e 7f7a 7c3d 0d63 9a3a 3e97 44be
000003e0: 139b ee3d bb23 eebd 82b9 89be 9d09 8e3b
000003f0: ac3e 7b3d f2a9 5e3e ea63 8d3d 39ee 2ebc
0.0041509196 -0.15512176 -0.008757414 0.04914516 0.08838178 -0.00093850755 -0.26184988 -0.009259191
0.16115351 -0.03294041 -0.0433549 0.034954607 -0.091341 -0.14973377 -0.00078378525 -0.085609585
0.16299579 -0.046975713 -0.01875742 -0.08386565 0.19098526 0.04257706 0.09440764 -0.08000467
-0.17418738 -0.017947061 0.059922945 -0.050005846 -0.009783922 -0.030570826 0.06618775 -0.2205044
-0.14296286 0.0039084507 0.03817086 -0.059864305 -0.06852015 -0.04766131 0.06609824 -0.15676636
-0.16482669 0.081599124 -0.015738333 0.0521192 -0.053749863 -0.1742273 -0.013902016 0.13208446
0.06446971 -0.076219834 0.14742494 -0.051018447 -0.027118254 0.056597736 -0.15047617 0.08636375
-0.008099967 -0.047557186 0.018767169 0.063780926 -0.06560423 -0.16089104 0.057984527 -0.009230745
-0.12211944 0.08530861 -0.060228888 0.08300034 0.029743694 -0.03259778 -0.110085554 0.049481165
-0.0694016 0.12774403 0.0019583087 -0.06832198 -0.01268178 0.042075586 0.003214486 -0.0144289695
0.0864707 0.035424888 0.22304107 -0.063572966 0.014799978 0.16722429 0.10159182 -0.053008683
0.21503869 0.26226604 0.12939198 -0.17882238 -0.12698354 -0.046613865 0.120590836 -0.027819224
0.073282085 0.013386869 -0.047055524 -0.19354123 -0.3872641 -0.2884607 -0.1290788 0.0088999625
0.041106302 0.063512206 -0.10410149 0.12192087 -0.085181125 0.08783986 -0.1097182 0.036119156
0.00238723 -0.068492636 0.05975122 -0.13399391 0.12948279 -0.034374338 -0.20505348 -0.67170095
0.081598416 0.007981079 -0.23451085 -0.09376052 0.09850622 0.068179145 -0.016284676 -0.052346196
-0.4826668 -0.024761891 0.060133055 -0.110545814 0.013192519 0.16087542 -0.10254377 -0.15691602
0.16222967 0.09941769 -0.09863824 -0.059386395 -0.03453961 -0.2955558 -0.26691762 -0.1633047
-0.16731696 -0.09926534 0.19754122 0.047361195 -0.09735269 0.10019056 -0.15530473 0.10787072
0.06738203 -0.10730665 0.027161941 0.038172897 -0.12989031 0.034544606 0.07958971 -0.06404308
0.07986116 0.18171751 -0.034585785 0.073926404 -0.125383 0.0061908267 -0.20089655 -0.14725061
0.026652547 -0.047753423 -0.15686533 0.11100042 -0.15966691 -0.111529715 0.0016151806 0.0019630725
0.12372396 -0.12302125 -0.078221366 0.1828366 -0.14940372 -0.100482 0.08465459 -0.008763951
0.04096238 0.2751242 0.13434161 0.27615207 0.0734246 -0.14823802 0.0035856285 0.064280935
0.026779134 -0.1215058 0.049922317 0.011891307 -0.085938305 -0.075843066 0.011371783 0.052616023
-0.19506769 -0.010245702 0.06899564 -0.006171822 -0.03432135 0.051678542 -0.19556427 0.08812945
-0.1002632 0.07917105 -0.13153362 -0.16149192 -0.18180157 0.109471925 -0.018955473 -0.15035416
-0.0025228292 -0.018966727 0.030747455 -0.032764595 -0.21526618 0.1674341 0.0394463 -0.23490778
0.12349176 0.13906775 -0.14832869 0.026240101 -0.15445797 -0.25557244 0.2344134 -0.09730077
-0.24979615 -0.18715394 0.15301473 -0.103510536 0.0025542811 0.03872027 -0.1779483 0.085715994
-0.2429227 -0.36172187 -0.05638042 0.053748094 0.22607277 0.06164026 0.0011778787 -0.1919832
0.11650672 -0.11627909 -0.26899344 0.004334642 0.061339065 0.21744516 0.06903823 -0.010676914

sequential_2/conv2d_9/Conv2D f4 [32, 3, 3, 16]
00000000: 2bde 393d e964 833d c950 f13d 5b98 46bd
00000010: cf21 c6bd a312 b0bc 84bc fe3c 38c8 6f3d
00000020: bf11 94bd 8eff b73d ca4e 97bc f1d8 03be
00000030: 8c76 14bd 69e4 0c3c ff30 92bd b78e 873c
00000040: 322c 00bc 448b af3a 2744 fcbb ea58 603d
00000050: a535 55be cc3d 23bd eec3 15be 2296 eb3d
00000060: 544a 74be 3ccd a23c e16e 2cbd bbcf d93d
00000070: 6dfc a4bd c443 e2bd 22cb f0bc cbdf 88bc
00000080: 9ac4 273d 579c d1ba 9612 07bc 9a93 8bbc
00000090: 65b4 a8bc 4271 1dbc c27a b5bd 58cb c33d
000000a0: 28c5 903d c474 c1bd c309 dabc ecee 8ab8
000000b0: 4d5e 7cbd 0efc 87bd 1e5a bc3c a333 50bc
000000c0: 5e56 4abd 6b4a 293d 409c 8c3d c7a6 c1bd
000000d0: 45b7 ec3e 78d8 56be ce9a ac39 c8e8 d23c
000000e0: 0635 aa3d 7b5b 9abc 91de 103d 3ac2 a9bd
000000f0: 8989 8dbb ca7b dcbd 25a8 9dbd d69b 7c3c
00000100: fc86 ebbc 1047 7ebd e553 2dbd 4162 1abd
00000110: 41a6 35be dfca 323d 7d1d 39bd 5801 c13d
00000120: 4687 8cbe 78de 263e 3a84 793d 1dd6 0bbc
00000130: 4ab1 c43c b2b0 06be 3d51 9fbc c062 46bd
00000140: 2cfa 423d e6c5 733d 0b89 04bd ad81 f03c
00000150: b329 55bd b86c 203d 2ed4 a4bc a9fa dc3d
00000160: cf84 ac3e 8e24 273e 7647 7a3d 2a05 343c
00000170: db9d afbd 2722 c3bd b65a 86bd 9f94 633d
00000180: 23ab 0c3d 4eca 0dbd f790 af3c 7894 3bbc
00000190: 7b9b 83bd aa04 02be 51af 62bd 8e77 d33d
000001a0: 1795 d83d 1367 13bd 5f0b 23bc 1d4c 3bbd
000001b0: 565e 703d 92c0 10be cb6b 79bd ae9b a8bd
000001c0: 062b 1bbd da16 50bd f9a7 babb 2ee8 65bd
000001d0: af31 1ebe b537 6dbd 29b4 2cbd 63d7 8a3d
000001e0: 38f8 c63d 1377 803c 808c 9f3d cc86 13bd
000001f0: 8aa0 b3bc 4fd6 90bd 4f4e 20bc c16c 763c
00000200: be43 babc 0130 03be b626 63bc f1ee 203b
00000210: 041c 083e ed9b 5c3e 8290 28bd edac 62bd
00000220: b75f 71be 7596 1dbd dfa6 febc 4c82 3bbd
00000230: 1f37 493d c89e 26bd c94f c3bd 9b73 c0bb
00000240: 3e09 f638 1fd4 48bd e74a 78bd 2c11 00bc
00000250: 6b65 20bd 247e 61bc 0ba0 c5bd 4d9f 0c3d
00000260: 1220 ad3d 0ab7 4ebd 0c79 9cbd 7353 b0bc
00000270: 389b 933d f083 99bd e2ad b6bd 643b 15bd
00000280: 3026 45bd 5791 bbbc 308e 1bbd 3605 a5bd
00000290: f274 bf3a 2a13 473d 9d1d b4bd 88d6 353e
000002a0: 7b77 b8bd 30d1 853e a84c fdbd 5265 42bd
000002b0: 3229 35bc 3249 18be e28c 90bd 0850 acbd
000002c0: d9ec 0dbd 650f 2abd e650 bfbd cad3 96bc
000002d0: 8d1c 7b3e 7fa7 37be dd36 c6bd b27f 053e
000002e0: acc0 e1bd 5b5a aebc 5d74 04be 543e 993d
000002f0: 0350 3b3d 2137 a7bd 5b1c ecbd 21e1 84bc
00000300: 93a0 c1bc a967 ab3c c00a 8ebd 327f 99bd
00000310: cbbb 9cbd 54bc cf3d 9b5d 28be 65d7 693d
00000320: 9446 0cbe fa85 27be 1bc5 22bd 5fa4 36bd
00000330: 50a4 fbbd 340a b4bd 06ff dbbd f467 fdbd
00000340: ca9d 2bbd 4911 1abd 0212 63bd 4959 e0bd
00000350: 7306 3e3e 266d 8ebc 5cb2 c6bd cbd8 68bd
00000360: 2b8a babd c83a b03d f02a 16be 841e ebbd
00000370: 8497 d2b8 8808 35be 6363 35be 31bf d73c
00000380: 0ac8 223d 86e9 4abd e96a e9bc 2bec 76bc
00000390: d0f4 743d f7e6 92be 0a30 4abe c788 e63d
000003a0: 12e9 593d 0af3 063d 4dd1 a6bd 7275 bc3d
000003b0: bfa1 79bd 435f 44be ab78 e5bd e9be d53c
000003c0: 44d0 acbb 7b1f bc3c 1a5c 86bd 642d dbbd
000003d0: feb4 1bbe f994 4ebe 5656 33be 6c2f b73d
000003e0: e0f4 afbd bae0 9dbd 3c30 1cbd 33ca 60bd
000003f0: 095c c2bd f6be efbd 7d6d 0dbe 7cd4 c2bc
0.04537789 0.064157315 0.11782987 -0.04848514 -0.09674417 -0.021493262 0.03109575 0.058540553
-0.07229947 0.0898429 -0.018470187 -0.12875725 -0.036245868 0.008599379 -0.071382515 0.016547544
-0.007823037 0.0013392945 -0.007698554 0.054772295 -0.20821245 -0.039853856 -0.14625522 0.11503245
-0.23856479 0.019873254 -0.04209793 0.106353246 -0.08055959 -0.110480815 -0.029393736 -0.016708275
0.04095898 -0.0015992027 -0.008244177 -0.017038155 -0.020593831 -0.009609522 -0.08861305 0.09560269
0.070688546 -0.094460994 -0.026615983 -6.6248555e-05 -0.06161337 -0.066398725 0.02299219 -0.012707624
-0.049398772 0.041330736 0.0686574 -0.094556384 0.46233574 -0.20981014 0.00032921735 0.025745764
0.08310895 -0.01884245 0.035368506 -0.08288999 -0.004319374 -0.107657984 -0.07698087 0.015418014
-0.028750889 -0.06207949 -0.042316336 -0.03769136 -0.17739202 0.043650504 -0.045194138 0.094240844
-0.27446955 0.16295803 0.060917117 -0.008534935 0.02401032 -0.13153341 -0.019447917 -0.04843402
0.047601864 0.059514903 -0.032357257 0.02935871 -0.05204172 0.039166182 -0.020120706 0.10789997
0.33695075 0.16322538 0.061103307 0.010987559 -0.085750304 -0.095279984 -0.065602705 0.055561658
0.034342896 -0.03461676 0.02143143 -0.011448972 -0.0642614 -0.12697092 -0.055342976 0.103255376
0.10575312 -0.03598697 -0.009951442 -0.045726884 0.058683716 -0.1413596 -0.060893815 -0.082328185
-0.037882827 -0.050803043 -0.0056962934 -0.056129627 -0.1544864 -0.057914454 -0.042164 0.06779363
0.09715313 0.015681779 0.0779047 -0.036017224 -0.021927137 -0.07072126 -0.009784295 0.015040577
-0.02273738 -0.12811281 -0.01386421 0.0024556483 0.13291937 0.21543856 -0.04115344 -0.055340696
-0.23571669 -0.038473565 -0.03108543 -0.045778558 0.049124833 -0.04067877 -0.09536702 -0.0058731562
0.000117319156 -0.04903042 -0.060618307 -0.007816594 -0.03915922 -0.013762984 -0.096496664 0.03433161
0.084533826 -0.05046753 -0.07640275 -0.021524167 0.0720734 -0.07495868 -0.08919884 -0.036433592
-0.04813212 -0.022896452 -0.037977397 -0.080576345 0.0014606996 0.04860226 -0.08794711 0.17757618
-0.09007164 0.2613616 -0.12368137 -0.047459908 -0.011057185 -0.14871672 -0.07058121 -0.08413702
-0.034649704 -0.041518588 -0.09341602 -0.018411536 0.2452261 -0.17934988 -0.09678433 0.13036993
-0.11023077 -0.02128332 -0.12935014 0.07482591 0.045730602 -0.08164812 -0.11528846 -0.016220631
-0.023636138 0.020923452 -0.06935644 -0.07494964 -0.07653006 0.101433426 -0.16441958 0.05709018
-0.13698798 -0.16359702 -0.039738756 -0.04459035 -0.122871995 -0.087910086 -0.10742001 -0.12373343
-0.041898526 -0.03761414 -0.055437095 -0.1095453 0.18557148 -0.01738603 -0.09701988 -0.056847375
-0.09108385 0.08604962 -0.14664817 -0.1148043 -0.00010041802 -0.17679036 -0.17713694 0.026336284
0.039741553 -0.04953911 -0.028493362 -0.015070955 0.059803784 -0.28691837 -0.19744888 0.11256557
0.05320079 0.032946624 -0.0814539 0.092020884 -0.06094527 -0.19176964 -0.11204656 0.02609201
-0.0052738506 0.02296423 -0.06560536 -0.10702017 -0.15205762 -0.20174016 -0.17513403 0.08944592
-0.08591628 -0.07708879 -0.038131937 -0.054880332 -0.094902106 -0.11706345 -0.13811298 -0.023782961

sequential_2/conv2d_10/Conv2D f4 [64, 3, 3, 32]
00000000: cef2 6e3d 323a 0e3c af26 0fbe 1e71 633d
00000010: bf6f 0d3c b4b4 a5bd 1c3c d2bc 254c 093a
00000020: e7b7 223e dede a63d 3d00 703d 8020 33bd
00000030: 42e4 80bc da32 0a3d 95f4 bcbc 488f 8e3d
00000040: 4aef c43a 9537 93bc 5691 c43d 8dbf b9bd
00000050: 035c d4bb 726b b63c 48d0 863d 2b2d 76bc
00000060: 38de e2ba 0c4b 073c e5b1 cdbd 6f9e 17bd
00000070: 1919 66bb 8f80 0a3e 09ae 41bd e526 16bc
00000080: ffa3 f23c 63df b2bd 65b8 443d 5e8a 02be
00000090: f7e9 9e3d 32a0 0bbe 03ef a23c 8996 cf3c
000000a0: d2f0 21bd 0aff 5bbd aa24 5f3d 3da9 c4bd
000000b0: 0ee2 ad3d 957c 043d a596 d4bd c6eb a9bc
000000c0: 5c38 37bc f64d 963d 115c 3c3b 0cde f3bc
000000d0: 3c11 bb3d 7826 69bd 5112 6ebd b5fd f2bc
000000e0: e4fc b1bc 69af a9bc 8766 413c 6c6f 0bbd
000000f0: 3e0c a33d d0c7 8c3d 36dd 5cbc f66c 23bd
00000100: cc3a 26be 056f 54be bece 543d 7f62 083e
00000110: c4a4 c83d ed02 79bd 554e 27be 8aa9 d0bd
00000120: 99f2 78bd 0e5f 87be 8288 7e3d 2141 abbe
00000130: 43fd ad3d 792e 18be aef9 20bd c2f9 373d
00000140: 55c9 9b3b 4046 9fbd c63b 393e 78d2 9fbd
00000150: c07d 4ebd 31e7 963d 8654 8ebe 64aa cf3d
00000160: 42c9 4abe 359c 9bbd 347b c23d 7a50 403e
00000170: 1900 8abd 9ca4 e53d 621e fabd 4a83 b2bd
00000180: 7d62 873d 660a fe3c 2fbf 1dbe 408a 66bd
00000190: df1f 12be 63ac 55be 0c59 793d fe3a ed3d
000001a0: 0294 293d 2a18 f23d fd4d 6ebc 4262 8a3d
000001b0: e5a5 0abe 9638 253c aece 6ebd a4e7 aabc
000001c0: 49df 433d 68ab c93d 5bfa 11be 6b69 a0bd
000001d0: 9265 1dbd c5fa 23be 5eb3 993d 880a bbba
000001e0: cb8d 7c3d 0ebe a93b 002e 84be 6c9e 3fbd
000001f0: 554f 4cbc 29a9 b03c 52d9 923d aad7 a13d
00000200: 4cd1 a43d 4c14 003b 5dc7 d9bd 0208 b5bd
00000210: f139 7abd 29ba a4be 6962 1c3d a214 cb3d
00000220: 77a3 d83c 0c26 23bc c0c0 22bd 214f 953d
00000230: c5a8 52bd f729 43bc d9db f8bd 604a 4dbc
00000240: 41f9 0a3e decd 5a3d d0d2 18be e8e1 a23d
00000250: 381e 4f3e 0246 34be c0ee d33c 146c a93d
00000260: 595d a63d 8f3d babc 14e1 1dbe 4848 91bb
00000270: fa1f a23d fb80 00be 42e0 f03d 5812 dabc
00000280: 427a 12bd 0289 5dbe 31d6 193d 9dcb 8bbd
00000290: 4a10 fe3d 7017 e0bd 1fb8 853d 3fd3 9bbd
000002a0: d4b9 1dbe 619d f8bd e6e6 9dbd 7766 4cbd
000002b0: 1199 e23d 52d3 65bd 7c02 24be 8af6 05be
000002c0: 3a91 d4bd 04a0 b33b 50a6 4dbd 9b86 02be
000002d0: dffb ba3d a1db 763c ef09 89bd ebaf 43bd
000002e0: da1f 81be 0bdd 58bd e151 9c3c 448a 1e3d
000002f0: 3e34 2f3b 4777 393d 1c02 e3bc 6f7b e5bd
00000300: c787 43bd 44bc c73d ec93 53bc c33e babc
00000310: 1771 80bd ba7f 15be 8400 253d 0450 afbc
00000320: 9717 11bb 4aea 3539 f947 0dbe 7e7b aa3d
00000330: ae65 f9bd 58df cdbc 12dc c8bc 9a8c 64bd
00000340: ca45 8cbc 035b 993d 61d4 92bc e5f8 dbbc
00000350: d312 83bc 2227 013d 47e0 08be ff2c babd
00000360: 0789 243d 0f78 b33d ae23 89be cddc c33c
00000370: 8631 323e b224 d7bd f9b2 a33d 6500 a6bc
00000380: 092e 813d 94d1 3a3e 7d73 8abd 40bb 963c
00000390: 30ce 41be ebed 8fbe 9106 1abd 103d 08be
000003a0: 4ffa e13c e081 303d 6a3e 03be 206a fe3d
000003b0: df9b 0abe 2c20 e7bd 19ab bb3d 0127 62bd
000003c0: 9f31 0f3e 7954 c23d b870 2fbe 0920 cf3c
000003d0: b222 973c 7d67 c5bc b877 16bd dfe6 2fbe
000003e0: 1a60 2f3d fbf6 13bd ee25 1fbe ecad 1abe
000003f0: ea4c a73d 44ce 65be b5e8 b23c f243 06bd
0.058337025 0.008680867 -0.139796 0.0555278 0.008632599 -0.08091107 -0.025663428 0.00052374817
0.15890466 0.08147977 0.058593977 -0.043732166 -0.015733842 0.033739902 -0.023065845 0.069609225
0.0015024927 -0.01797084 0.09598033 -0.090697385 -0.006480695 0.02226803 0.06582695 -0.015025417
-0.0017308658 0.008257639 -0.10043696 -0.03701633 -0.0035110174 0.13525604 -0.047285113 -0.009164547
0.029619215 -0.08734014 0.048027415 -0.12748095 0.07759469 -0.13635328 0.01988936 0.025340335
-0.039536305 -0.05371002 0.054478325 -0.09602592 0.08490382 0.032345373 -0.10380296 -0.020742308
-0.011182871 0.073390886 0.00287414 -0.029768966 0.091341466 -0.056921452 -0.058122937 -0.029661993
-0.021727033 -0.020713525 0.01180423 -0.034041807 0.079613194 0.06874049 -0.013480475 -0.039898835
-0.16233367 -0.20745476 0.051954977 0.13318823 0.097970515 -0.060793806 -0.16338475 -0.10188587
-0.060778234 -0.26439708 0.062141903 -0.33448127 0.084955715 -0.14861478 -0.039300613 0.044915922
0.0047542253 -0.07777071 0.18089208 -0.078038156 -0.050412893 0.07368315 -0.2779886 0.10139921
-0.19803336 -0.075981535 0.094961554 0.187807 -0.067383 0.11213037 -0.12212826 -0.08716448
0.06610582 0.031010818 -0.15404962 -0.05628419 -0.1426997 -0.20866542 0.060875937 0.115835175
0.041400917 0.11821015 -0.014544961 0.067570224 -0.13539846 0.010084292 -0.058302574 -0.020862408
0.047820363 0.09847146 -0.1425566 -0.07832607 -0.038426943 -0.1601363 0.07504915 -0.0014270106
0.06165866 0.005180127 -0.25816345 -0.046781942 -0.012470086 0.021565037 0.07170357 0.07902463
0.08047733 0.0019543348 -0.10633729 -0.08839418 -0.061090413 -0.3217328 0.03817979 0.09916045
0.026445134 -0.009957802 -0.039734602 0.07290483 -0.051430482 -0.011911861 -0.121513076 -0.012529939
0.13571645 0.053418986 -0.14924169 0.079532444 0.20226371 -0.17604831 0.02587068 0.082725674
0.081232734 -0.022734432 -0.15417892 -0.0044336654 0.07916255 -0.12549202 0.11761524 -0.026620075
-0.035761125 -0.21634296 0.037557784 -0.068259455 0.12405451 -0.1094197 0.06529259 -0.07608651
-0.15402919 -0.12139393 -0.07710056 -0.049902406 0.11064351 -0.056109734 -0.16016573 -0.13082328
-0.10379262 0.005481722 -0.050207436 -0.1274666 0.09130072 0.015067012 -0.06691348 -0.04777519
-0.25219613 -0.052945178 0.019082012 0.03870608 0.002673402 0.045279767 -0.027710967 -0.11205184
-0.04773691 0.09752706 -0.012913685 -0.022735005 -0.0627157 -0.14599505 0.040283695 -0.02140046
-0.0022139305 0.00017348785 -0.13796987 0.083243355 -0.12177597 -0.025130913 -0.024519 -0.05579815
-0.017123122 0.07488062 -0.017923536 -0.02685208 -0.016000187 0.03153146 -0.13366805 -0.090906136
0.040169742 0.08763134 -0.26785034 0.023908997 0.17401704 -0.10505046 0.07993121 -0.02026386
0.06307609 0.1824401 -0.06760309 0.018399835 -0.1892631 -0.28111205 -0.03760392 -0.13304543
0.027585177 0.04309261 -0.12816778 0.124225855 -0.13536023 -0.11285433 0.09163494 -0.05521298
0.13983773 0.09488768 -0.17132843 0.02528383 0.018449161 -0.024097199 -0.036735266 -0.17177914
0.04281626 -0.03612421 -0.15541813 -0.15105408 0.08168967 -0.22441965 0.021839479 -0.03277964

sequential_2/conv2d_11/Conv2D f4 [128, 3, 3, 64]
00000000: e1d4 f7bd c3f6 9fbd d64b c4bd f656 2abd
00000010: 819a b1bc cc21 eebc fa3b 50bd 62fc f1bc
00000020: c3b7 4ebe 5989 a33d b7e4 01be 4baa 873d
00000030: ebb4 6cbd d2f4 863d 34a4 15bd c818 f83c
00000040: 8b7b e53d dc6c 57bd 99ef 74bd 2fd1 c7bd
00000050: 4744 5b3d 02ca afbc 287e 16bc d24c 0f3d
00000060: ca86 9ebd 7bc4 15be 44d8 a43d 7d97 09be
00000070: 8aeb 863b cff3 81bd 82ca 9a3c 2159 30be
00000080: 24f0 b13d 1d26 853d 2181 54bd 6d59 21be
00000090: 504a c4bd af89 d8bd 4e3c 903c 6de5 b9bb
000000a0: 4734 883b 424a 4ebd 73d0 83be 31c4 9fbc
000000b0: 3c25 753d 6c96 b83d 4ee5 d7bd 806c babd
000000c0: 2b14 1abc 8277 61bc 283f e03c f9bf 52be
000000d0: 2cf2 d13b 35a3 893d 167c de3d eb57 34bd
000000e0: 58cd cb3d 33dc 633d 7958 10bd 5300 863c
000000f0: 3835 40bc 82f6 1fbe 03b4 813b 9ed8 30bd
00000100: d270 f1bb a1ce 38be 1d2b 863d c80f 3abe
00000110: f21b f2bc abf1 c23d c390 9dbd a440 94bd
00000120: baa9 ce3d a8f2 90be 484d 88bd d929 debd
00000130: 7269 0dbe cc60 733c 8b83 79bc d75c 93bd
00000140: da64 95bc fe6c 9a3b 17a1 eabd e871 9abd
00000150: cac5 09bd 1900 f3bd cd71 8abc 4a83 59bd
00000160: 6453 87bd 2c86 d8bd f80b a8bd 92c2 6abd
00000170: 0960 05be c47b dd3c f84b 66bd 5eb4 773d
00000180: 79a4 583c 124a 82bd e425 8d3b 8d80 41bd
00000190: 1df9 a3bd 31b2 893d 76dd 7fbd 46f7 303d
000001a0: 8318 0cbe 47dc 62be 2c61 77bd 46d2 26be
000001b0: 9e8a 58bb b0ab 0ebe ca30 753d e99b 42be
000001c0: 7aae fc3d f85c 21be 633e 563c a7ca 1e3d
000001d0: af2b debd 0513 28bd d4e6 47bb 871d 0fbe
000001e0: 1681 2f3c 0a50 713c 8e9b 3c3d 833e 823c
000001f0: 71e6 23bd 76f8 a03b 00a2 8ebc 0357 09bd
00000200: 1004 50bd 3936 8a3c 56aa 173d 5411 b4bd
00000210: e360 b9bd d0e7 4abd cc1d 30bc 6db4 503c
00000220: 7298 9d3d 1dbe 47be 6702 8dbd b520 18bd
00000230: 4412 6cbd 96de 9abd 2810 973d 9d84 1dbe
00000240: 7bd8 a1bd 68df c1bd 029f bdbd e659 4ebd
00000250: 4c67 7bbe 21ba 003d a56a b7bd 4f17 96bd
00000260: b44d 8a3c 6cbe d63c 98da 903d 5d37 ff3d
00000270: 96a4 22bd d770 3abd cb28 b53c 266b 843a
00000280: f557 e5bd c15e d4bc 5b73 2dbe 62a2 39be
00000290: 08d3 3bbe 2ecb f5bd cbbc c3bd 0370 d5bc
000002a0: a90c b3bd 90ca 87bd c5a2 ab3d 580b 2f3e
000002b0: 2035 a3bc 068c c9bd 6c87 aebd e2c2 a83d
000002c0: feda 553d cb89 4abc 9cde 0f3d c184 8dbc
000002d0: a132 0fbe b762 fb3d af79 dcbd 7e24 46bd
000002e0: 750b edbc 643b 223d ded6 d03b c106 b3bd
000002f0: b510 7f3d 6e76 95bd d07a 9ebc e2c8 453c
00000300: 7a44 8fbd 8556 f4bd 5c10 83be 0891 90bc
00000310: 3d11 643c 2e11 b8bd a979 ac3c 52b7 23be
00000320: f54a 7dbe 9563 f83b eec4 31bd 7e8e e2bd
00000330: b4fe 083d fa24 91bb 329a 5bbd b6ae 83bd
00000340: 8e9f ad3c 8aef 8fbc 6e3e ddbd 19ef 4abe
00000350: ae2f af3b 46d4 9abb 216a c4bd a8dd 99bd
00000360: 7690 20be a405 20be af8f 0c3c b642 a2bd
00000370: f21a 0c3e 7594 b3ba 492d 37be 3b0d 46be
00000380: e7fa 17be 5c96 a43b 3b48 d9bb 1c9d d9bd
00000390: be96 eabd badd c63d 72d7 10be 0dd7 dbbc
000003a0: 972f 95bc 8790 27bc 71fa b7bd e65d 0bbe
000003b0: 9c15 abba 89dd d5bc ea8f 3cbc 7000 a1bd
000003c0: da93 b2bd fbd8 e1bc 1c6d 88bd 5b64 bcbd
000003d0: 4ce2 c2bd 2e51 58bd 0e57 d6bb ab53 2dbd
000003e0: 73c4 04be beb4 f8bc 7ed6 7dbe e800 11be
000003f0: a3ef 96bd 620e 46bd 21fe 91bc a8f4 c0bc
-0.1210115 -0.07810738 -0.09584777 -0.04158684 -0.021680119 -0.02906885 -0.050838448 -0.02953929
-0.20187287 0.07985181 -0.12684904 0.06624278 -0.057789724 0.065896645 -0.03653355 0.030285254
0.112052046 -0.05259405 -0.05979881 -0.097566955 0.05353191 -0.02145863 -0.009185351 0.03498537
-0.07740553 -0.14625733 0.08049062 -0.13436694 0.004117434 -0.06345331 0.018895391 -0.172215
0.08688381 0.0650141 -0.05188096 -0.1575677 -0.095844865 -0.10573136 0.01760688 -0.0056731016
0.0041566226 -0.050363787 -0.25744972 -0.019502731 0.059849963 0.09013066 -0.10541783 -0.09102726
-0.0094042225 -0.013761403 0.027373865 -0.20581044 0.006407043 0.067205824 0.10863511 -0.044029158
0.099512756 0.05562992 -0.035240624 0.016357576 -0.011731438 -0.15621379 0.0039582266 -0.043175332
-0.0073681856 -0.18047573 0.06551192 -0.18170083 -0.029554341 0.09518751 -0.07693627 -0.07238892
0.100909665 -0.28310132 -0.06655365 -0.108478256 -0.13809755 0.014854621 -0.015229116 -0.07195442
-0.018236566 0.0047127 -0.11456507 -0.07541257 -0.033635892 -0.11865253 -0.016899968 -0.053103723
-0.066077024 -0.10572466 -0.08205408 -0.057314463 -0.13024916 0.027036555 -0.056224793 0.060474746
0.013222807 -0.06361784 0.0043074954 -0.047241736 -0.08006499 0.067234404 -0.06246706 0.04320457
-0.13681225 -0.22154342 -0.060395405 -0.1629115 -0.0033041607 -0.13932681 0.059860982 -0.19004788
0.12337966 -0.15758121 0.013076398 0.038767483 -0.10848176 -0.041033763 -0.0030502575 -0.13976108
0.010711929 0.014728555 0.046046786 0.015898949 -0.040014688 0.0049124314 -0.017411232 -0.033530246
-0.050785124 0.016871559 0.03702768 -0.087923676 -0.09051683 -0.04953748 -0.010749292 0.012738329
0.07695092 -0.19506116 -0.06885224 -0.037140567 -0.057634607 -0.07561986 0.073761284 -0.15382619
-0.079026185 -0.094664395 -0.09258844 -0.050378703 -0.24551123 0.031427506 -0.08955888 -0.073286645
0.016882755 0.026213847 0.070729434 0.124617316 -0.039707743 -0.04551777 0.022114178 0.0010102734
-0.11198417 -0.025924088 -0.16938536 -0.1812835 -0.18342221 -0.12001644 -0.09557494 -0.026054388
-0.08742649 -0.066304326 0.08380655 0.17094171 -0.019922793 -0.098411605 -0.085219234 0.08240296
0.0522108 -0.012361954 0.035124406 -0.017275216 -0.13984157 0.12274688 -0.10765397 -0.048374645
-0.028936127 0.03960742 0.0063732704 -0.087415226 0.062271792 -0.07297979 -0.019345671 0.01207182
-0.06995483 -0.11930565 -0.2559842 -0.017647281 0.013920126 -0.08987652 0.021054106 -0.159879
-0.24735625 0.0075802305 -0.043400697 -0.110623345 0.03344603 -0.004429457 -0.05361385 -0.06429808
0.021194246 -0.017570276 -0.10802923 -0.19817771 0.00534626 -0.004725012 -0.09590555 -0.07512981
-0.15680107 -0.15627152 0.008579179 -0.0792288 0.13682154 -0.001370086 -0.17888369 -0.19340985
-0.14841805 0.005022807 -0.006630925 -0.10625669 -0.11454533 0.0971026 -0.14144686 -0.026835943
-0.01821117 -0.010227329 -0.08983315 -0.13610038 -0.0013052705 -0.026106613 -0.011508921 -0.078614116
-0.08719607 -0.027569285 -0.06661436 -0.09198829 -0.09515819 -0.052811794 -0.0065411394 -0.04231612
-0.12965564 -0.030359622 -0.24788854 -0.14160502 -0.07369926 -0.04835356 -0.017821373 -0.023554161

sequential_2/dense_8/BiasAdd/ReadVariableOp f4 [3]
00000000: fcd4 88bd 5a47 fd3c 05ea 5c3b
-0.066812485 0.030917812 0.0033708822

sequential_2/dense_7/BiasAdd/ReadVariableOp f4 [32]
00000000: 7280 0bbe 3329 593c 9bd5 3bbd b316 1fbd
00000010: ae8e c0bd 1204 9e3c d3eb 913d 8142 febd
00000020: 21e0 c5bd 2028 91bd 17c3 2dbd 2bdb 993c
00000030: 0f35 cb3d 3239 eb3b d14b 19be be19 343d
00000040: 656f 303e 0871 e5bd 3c78 cbbd a420 53be
00000050: ecc5 c53d 27af 59bc 0853 d6bd 693d babd
00000060: 0c19 3abc f149 113e d61b febd 5e8b 8a3e
00000070: 1b96 d53d 6c64 023e b304 8e3d f21e 683e
-0.13623217 0.013254452 -0.045858007 -0.038840007 -0.09402214 0.01928905 0.07125058 -0.12415028
-0.0966189 -0.07087731 -0.04242238 0.018781265 0.099222295 0.007178449 -0.14970328 0.043969862
0.17229994 -0.112031996 -0.09935042 -0.2061792 0.09656891 -0.0132863885 -0.10465056 -0.09093744
-0.011358511 0.14188363 -0.12407653 0.27059454 0.10429021 0.1273362 0.0693449 0.22668055

sequential_2/dense_6/BiasAdd/ReadVariableOp f4 [64]
00000000: 2fe4 773d 0c3c 003f 9218 64bc 10eb 0abd
00000010: 76dc febc 568d 4ebd 2b23 233d 7547 5dbd
00000020: 8aa6 a9bd 8c0b 0ebd 4a6a 0abd 26f5 8f3d
00000030: 568d 333c b86b ab3d 7bdd b93c 54b2 da3d
00000040: 3c0d 223d 9c69 5ebd 5735 80bd e0e7 843d
00000050: c3d4 093c ee3e ffbc 5430 fd3d 2eab acbd
00000060: 8bd7 6c3d e488 27bd 1a80 2b3d 2473 823d
00000070: 4cbc 203e 5e6e a3bd 29e2 7cbc 69fc c7bd
00000080: 9649 b63d 1ad2 c53d ea9d dfbd 5b6f cabd
00000090: b4a8 c1bd 14d1 2b3e 1896 9f3c d58c bf3d
000000a0: b9dc 25bd dd84 073e 24f8 e63c 4e41 7abc
000000b0: 4fc2 47bd b7ee 22bd 73e3 46bd e827 e53d
000000c0: 3ff5 59bd 727d 92bd 7f95 b7bc 59b2 733e
000000d0: 53d4 b9bd 9972 51bd 0f86 e93d 287e d4bc
000000e0: a344 973d 24d1 9b3e 5306 21bd b125 3ebc
000000f0: e7d1 9ebd eef5 59ba e48a 933d 9f2f adbc
0.060520347 0.50091624 -0.013921874 -0.03391558 -0.031110983 -0.050427757 0.03982846 -0.054023225
-0.08283718 -0.03467898 -0.03379277 0.0702918 0.01095899 0.08370155 0.022688618 0.10678545
0.039563403 -0.054299936 -0.06260174 0.06489539 0.008412543 -0.031157937 0.123627335 -0.084310874
0.057822745 -0.040902033 0.041870214 0.063696176 0.1569683 -0.07980035 -0.01543478 -0.0976494
0.08900754 0.09659214 -0.109187916 -0.098845206 -0.09456006 0.16778976 0.01948075 0.093530335
-0.0404937 0.13234277 0.028194495 -0.015274359 -0.04876929 -0.039778437 -0.048556756 0.11189252
-0.0532124 -0.07152833 -0.022410152 0.23798503 -0.09073701 -0.05113468 0.11402523 -0.025939062
0.07386138 0.30433 -0.039312672 -0.011605666 -0.077548794 -0.00083145394 0.07204226 -0.021140872

sequential_2/batch_normalization_2/FusedBatchNormV3 f4 [16]
00000000: c438 b941 41e7 c941 c7a5 c341 ea50 3a40
00000010: ea46 8841 b10e 1f41 7354 7e41 1fa1 f341
00000020: a74c 0142 92ba 8540 7371 9c40 b5fd 8240
00000030: 7a22 e441 4172 e041 8eb2 e040 6a19 4a40
23.152718 25.237917 24.455946 2.9111886 17.034626 9.941087 15.8956175 30.453672
32.324856 4.1790247 4.888849 4.09347 28.516834 28.055788 7.021796 3.1578012

sequential_2/batch_normalization_2/FusedBatchNormV31 f4 [16]
00000000: cfea 213c 72fb cabb 8ddc 333c 6b8c cabd
00000010: 46a0 0abe f769 a7bd dba2 633d 9c53 16bb
00000020: 00de fc39 f968 48be f9ff 66be c46c 82be
00000030: 1526 5dbb c719 e73d 8007 903c da5b 27be
0.009882643 -0.0061945254 0.010977876 -0.09890064 -0.13537702 -0.08174508 0.055575233 -0.0022938019
0.00048230588 -0.19571294 -0.22558583 -0.25473607 -0.0033744622 0.112842135 0.017581701 -0.16343632

sequential_2/dense_6/MatMul f4 [64, 1152]
00000000: 812d e73b a065 e8ba 33ae 26bd 691b 143d
00000010: ea09 eabd c34c 363c 7e74 093d 306c 8f3d
00000020: baf3 07bd 10dd f43a ac8d 00bd 3f43 27be
00000030: c452 b43d 0c0b 103e 407e bc3d de23 e7bd
00000040: 6192 c6bc 3a0d 523d bd1b a3bd f123 c2bd
00000050: 8220 d23b 528b 533d 7e8c 313d ffba 15bb
00000060: c735 70bd 4214 603d 4db8 b63d edc6 83bd
00000070: f08d 0abd 38a8 ac3d 8296 9d3d bb04 2cbc
00000080: 2d4b 8abc 3aeb 19bd 4679 d13d 23e7 a83c
00000090: fce9 983d d728 c2bd 3422 b33d d853 18bd
000000a0: 281f 3f3d 31f6 063e d32e 0dbc d405 f9bb
000000b0: dd3c 34be 7b30 213d 5399 003d 870e 5abd
000000c0: ff3e eabc b13f 4bbd bcee 193d 911f 41bd
000000d0: 36dc dbbd f660 fd3c f24a 67bd 42dc 803d
000000e0: 66a5 d73d 3b99 a6bd 5e49 023e 7fba 2cbd
000000f0: 64ea 96bd 2f6f 73bd 9a80 793b 981a 37bc
00000100: 5c63 0abd fcb5 a43d 0cc9 c0bc 5e4d b0bd
00000110: d955 493c e7f9 0f3e d911 be3d c786 1a3e
00000120: 1c2f d0bd e846 c13b b251 6cbc 41dd 6abd
00000130: b515 8d3c 0834 4ebe f709 403d 278a 7b3d
00000140: f7c1 b03b e60b 57bd 2f69 6f3d 7454 61bc
00000150: 9370 b83b a90d 123e ccdc ef3d 82d3 f7bd
00000160: c22f 59bb 1e38 0abb 17cd a73a b21a 8dbd
00000170: 4342 b73d 880a c83d 3340 12be a76c 8ebd
00000180: adca b93c c39c 723c bb2d 83bc 8cb2 613c
00000190: c01b f6bc 0449 c63d 543a 3c3e 9b63 38be
000001a0: b408 cf3d 5df6 1c3d d49f 673e 70c1 f4bd
000001b0: 986f f3bd 90f5 8a3d d71b 00be 2b33 083d
000001c0: 9b5c 16be 30fe 153d 23b1 d23d e602 873d
000001d0: 065e bfbc 5057 1d3e 5aad 5f3d ebb8 93bd
000001e0: c0b3 b93c eaa8 89bd c2fe 843c 5d44 593e
000001f0: 00be bb3a 5b59 ef3d 6ef2 0d3d 8118 d3bc
00000200: 92f2 193e 197d 2f3e f094 d6bd cb53 383d
00000210: 6fc5 8dbd a8cb 30bc 7543 7b3d 9c01 413d
00000220: 7a46 873d fc21 cbbc 94d4 9f3c aba5 e8bd
00000230: f187 ddbd 861f 003e e403 7abd a19c 1e3d
00000240: 151e 76bc 1e39 093e 226f 403c ab6c 223e
00000250: 76e9 0bbe 6af1 4abc e86e 3cbc 5e23 d93c
00000260: bef4 ce3c 7fc3 50bb c271 06bd def2 a33b
00000270: 7846 14be 8d52 82bd a4c3 89bd 98b8 023d
00000280: ef0e 7ebd 60f5 e53d f1c9 79bc bea4 69bc
00000290: ae30 e83d 22a8 e53c 7e6c 45bd 02bf ba3d
000002a0: c4bf 553e 64e0 863d 90b6 f8bd 7224 953d
000002b0: 0d83 373d 07ca 1ebe ab45 023e 3730 4e3d
000002c0: 9db7 7c3d 61b8 31bd 409b b5bd b9b7 acbd
000002d0: 947e 32bd 6e8f 31bd d33e 91bd a133 94bd
000002e0: e134 9e3d 24b7 763d 5ca5 093c ebb0 b63c
000002f0: a936 ccbd 5a71 393d d939 0a3d 2caa 9c3c
00000300: 547b a53c 7b65 a43d af17 d23d beef 403c
00000310: 5fff 38bd 8274 1cbd 602f b6bc fdd2 2d3b
00000320: 0154 c3bb 879f 2abd 5fd3 643d a45b 0dbd
00000330: be4c 22bd 2544 babd 8e9c f83d 5154 49bd
00000340: 94e4 61bc d8dd a43c d06f 893c 3c40 84bc
00000350: 10aa 90bd b5d5 5e3e 733a d3bd 9be9 fabd
00000360: dad6 6bbd afb8 683d 8330 2f3c ac0f 55bc
00000370: d866 203d cbbf 88bd 2c59 9bbd 43e0 b33c
00000380: cde5 6e3d 986f 87bd 5591 3ebd c593 66bb
00000390: 9b20 99bd 70f5 7dbb 36de e5bc 7721 e5bd
000003a0: ff23 f13c 9843 443e dabb b03d 81a1 9c3c
000003b0: 9c95 a13d 30b6 78bd 5b29 b03d c99a d8bc
000003c0: 9161 043e 9d37 6f3d 8503 bdbc 8f26 a5bc
000003d0: 650f 3bbd 9c24 af3d ea06 043e 6919 153e
000003e0: b1f2 b1bb 175b 0b3e adce 05bc cb1e 0fbc
000003f0: b349 4dbd 352d 003e 53ed 7f3d 875c ab3d
0.007054985 -0.0017730482 -0.040693473 0.036158953 -0.11427672 0.0111267 0.03355836 0.07003057
-0.03319142 0.0018681604 -0.03138511 -0.16334246 0.08804849 0.14066714 0.09203768 -0.11286138
-0.02423972 0.051282145 -0.07964275 -0.094795115 0.0064125666 0.051646538 0.043346874 -0.0022847054
-0.058645036 0.05470682 0.08921871 -0.064344265 -0.03382677 0.08430523 0.07694723 -0.010499175
-0.01688155 -0.037577845 0.10228209 0.020618027 0.07466504 -0.09480446 0.08746758 -0.037189335
0.046660572 0.13179852 -0.008617121 -0.0075995717 -0.17601342 0.039352875 0.03139622 -0.05323651
-0.028594492 -0.049621288 0.03758119 -0.047149245 -0.10735361 0.030930024 -0.056467958 0.06292011
0.10529594 -0.08134695 0.127233 -0.042170044 -0.07368925 -0.059432205 0.0038071037 -0.011175774
-0.033786163 0.08042523 -0.023533367 -0.086085066 0.012288534 0.14060174 0.09280748 0.15090476
-0.101652354 0.0058983453 -0.014423775 -0.05733991 0.017222265 -0.20137036 0.046884503 0.06141105
0.005394216 -0.05250158 0.05844992 -0.013753045 0.0056286543 0.14263023 0.117120355 -0.12100889
-0.0033140038 -0.0021090577 0.001280221 -0.06889857 0.08948185 0.09767634 -0.14282303 -0.069543175
0.022679651 0.014807883 -0.016013017 0.013775479 -0.03004253 0.096818954 0.18381625 -0.18006746
0.10109082 0.038320888 0.22619563 -0.11950958 -0.11886519 0.067851186 -0.1251062 0.033251923
-0.14683764 0.036619365 0.102876924 0.0659235 -0.023360264 0.15365338 0.05460868 -0.07213005
0.02266872 -0.06721671 0.01623476 0.21217485 0.0014323592 0.11686965 0.034655027 -0.02576852
0.1503394 0.17137565 -0.10477626 0.045001786 -0.06922423 -0.010790743 0.06134363 0.047120675
0.06605239 -0.024796478 0.019510545 -0.11359724 -0.108169444 0.12512025 -0.061038867 0.03872359
-0.015021821 0.13400695 0.011745246 0.15861766 -0.13663277 -0.012386659 -0.0115010515 0.026506122
0.025263187 -0.0031854806 -0.03282333 0.0050033173 -0.14480007 -0.063634016 -0.067267686 0.031914324
-0.06202596 0.11228442 -0.0152459005 -0.014260469 0.1133741 0.028034274 -0.04819917 0.09118463
0.20873934 0.06585768 -0.12144196 0.07282342 0.044802714 -0.15506755 0.12721889 0.05033895
0.061698545 -0.043388728 -0.08867502 -0.0843348 -0.043577746 -0.043349676 -0.07092061 -0.0723641
0.077249296 0.06023325 0.008401241 0.022301158 -0.09971363 0.045274116 0.033746574 0.019124113
0.020200409 0.08027168 0.102584235 0.011775909 -0.045165416 -0.038197048 -0.022239387 0.0026523464
-0.005960942 -0.041656043 0.05586564 -0.034511223 -0.03962397 -0.09095029 0.121392354 -0.049152676
-0.013787407 0.020125315 0.01677695 -0.01614391 -0.07063687 0.2176121 -0.10313883 -0.12251588
-0.057577945 0.056816753 0.010692718 -0.013004225 0.03916058 -0.066772066 -0.075853676 0.021957522
0.058324624 -0.06613082 -0.04652532 -0.0035183292 -0.07476922 -0.0038751028 -0.02806006 -0.111880235
0.02943611 0.1916641 0.0862958 0.01911998 0.07889864 -0.060720623 0.08601638 -0.026440995
0.12927844 0.058402646 -0.023072967 -0.020159988 -0.04566898 0.085519046 0.12893263 0.14560474
-0.0054305424 0.13608967 -0.008166951 -0.008735369 -0.050119113 0.12517245 0.06248219 0.083672576

sequential_2/dense_7/MatMul f4 [32, 64]
00000000: 69fe a1be 687a 243c 5d17 46be d5f3 523e
00000010: 354c 24be 81f0 393e ed78 2bbe 561a 06bd
00000020: 0959 cd3d a1ac 2b3e a9b1 183e dc4e 6bbd
00000030: 195a 113e bc41 a73d ad15 223e b8b6 2ebe
00000040: 5fb6 383c fba7 a83d f02b 653e 090a b4bd
00000050: 3f97 debd 592a 383e ed5c 68bd ac74 06be
00000060: d3d0 6b3e cff0 bbbd 2908 803d cd16 523e
00000070: fe06 3bbe 3cb7 adbd e428 b13d c805 343c
00000080: 838e 21be 51ef 3e3e 5bb5 c3bc 7e4b b7bd
00000090: 4a21 863e ac3a c5be 1729 d1bd 3ed5 03be
000000a0: 2b63 64be c8e0 febc a5fb b8bd f85f e3bd
000000b0: 67d0 37be 7446 de3c b3bb 15be 3bed fcbd
000000c0: b17b 36bd e929 663e a154 2c3d 230d 19be
000000d0: a29c 60bd 7874 5e3e 3f2f 653c 7b47 d3bc
000000e0: d66e 9fbd 85ef 1d3e 722f 02be 2d16 523e
000000f0: ea13 e3bd 1c74 96be 7587 5b3d baa2 9aba
00000100: 73a3 413e 0be9 933d 39af cb3c c803 e73c
00000110: 13b7 8f3d 9ea6 3c3e d0aa b83d fb07 c4bd
00000120: 4384 1d3c 1ac2 0dbd 5e63 0e3d 9c40 75bd
00000130: f206 853e 592b 30be f535 7e3e 470b 8e3b
00000140: 3512 31be 0a39 df3d 84ed f5bd 4f86 223e
00000150: de33 c63d c9e1 1c3e bff0 7abd a119 763c
00000160: fc8f a9be ba61 4d3e dc32 843e 908f 7cbb
00000170: bbd2 633d 5246 373e 4085 5dbe f89c 173e
00000180: e611 0b3d fed3 fd3b 933d e2bd 17d8 233d
00000190: 3572 4e3d f49b 2d3e d585 5e3c c021 973c
000001a0: e0e4 283d 8efa 073e b63c 58be c8d9 e6bd
000001b0: 2280 f93b 066b 2a3e 8b24 6db9 4146 8cbd
000001c0: 062c 5dbe ae74 57bd 9e0d 55be 55cb f43d
000001d0: 94f1 acbd c2ad 68be af4f 15be 9443 efbd
000001e0: 63d1 6bbe 72d2 19be 2ae3 c73d 3602 b53d
000001f0: e37c 6d3c 7788 84bd 860b 093e 2332 a0bd
00000200: c4c8 a73d 5d7b dc3d 9cc5 83be 16c0 b0bd
00000210: d922 3c3e 5f93 fc3d 4af3 05be 0a6e 863d
00000220: ba02 c43d fe20 aabd 7713 05be a749 c0bc
00000230: d90a fabc 459c febc a266 1e3e 512d 1c3d
00000240: 89ad d4bd c5bb 9b3d 6d90 7f3e 5cc1 2ebc
00000250: 21ad 81bc 84b6 55be 96de b2be 34ca 553d
00000260: 2cd8 e53d 7527 b63d 309e 273d 7526 1a3e
00000270: d5b9 7e3c d6c1 17be cbf2 cf3c f659 0e3e
00000280: b67c 27be d7d9 44be 52a6 02bd ff7e bbbd
00000290: 2e65 acbd 4815 d5bd f9b2 ee3d 6586 1a3e
000002a0: bf0f 5f3e 3b58 44be 06a4 debd a0d7 18be
000002b0: f818 863d 578c f4bd 63c1 5b3d 4a42 cdbe
000002c0: 2f98 523e f7df 72bd e25e 1a3e 0191 60be
000002d0: 7c1e 893c 2ecc 723d cc44 0ebe c564 88be
000002e0: 6eee b73d a79f e1bb c8b0 3fbe 1eb1 043d
000002f0: 0ae1 2a3e 841c ee3b 01be a93d 25d2 373e
00000300: b307 e53d 4c7e 92be f88c c4bd 5485 d4bc
00000310: c553 e73d 33d2 0abd be5d bebd ddec 55be
00000320: 0f5d 6a3b 326c 383e 8eb2 5a3d 5d6f 4b3e
00000330: 11dc 44be ba94 47be 9b9c eabd c639 80be
00000340: 66f5 77be a943 4fbe 3265 3d3e e212 73be
00000350: fc94 f83d 5830 27be 77e9 61be fde6 11be
00000360: e519 cf3d 685d acbd 417d 75be c8fd 203e
00000370: b309 483d 8dd1 2e3d e970 373d 69ac 993d
00000380: cd6c 93be 5054 b0be a884 673d 151f 123e
00000390: b08a 4c3e d9a7 90be b9fc be3d 26ae a5bd
000003a0: 9d62 273e bc21 22be 4a69 cabc b4c4 f33d
000003b0: 05fa 403e 043a 4bbe 65db c63c 2d3d 5bbe
000003c0: 3fab 3a3e b278 b13d 1fb8 553e c1dd 133d
000003d0: 17d3 33be f9f1 403e 1aad 743d a25a ff3d
000003e0: 25a6 483e 3b9a 04bc c904 833d 1118 e0bd
000003f0: f120 7ebe 15ac 14be b980 29be 9a4b a63d
-0.31639412 0.01003895 -0.1934485 0.20600827 -0.16044696 0.18158151 -0.16745348 -0.03273996
0.10026748 0.16765071 0.14911522 -0.057448253 0.14194526 0.08166835 0.15828581 -0.17061889
0.011273949 0.08235165 0.22380042 -0.087909766 -0.10868692 0.17984904 -0.056729246 -0.13130444
0.23028879 -0.0917679 0.062515564 0.2051651 -0.18264386 -0.08482215 0.086503774 0.0109877065
-0.1577702 0.1864598 -0.023890188 -0.08949946 0.26197273 -0.38521326 -0.102129154 -0.12874314
-0.22303455 -0.031113043 -0.090323724 -0.11102289 -0.17950593 0.027133204 -0.14622383 -0.123499356
-0.044551555 0.22476925 0.042072896 -0.14946418 -0.054836877 0.21724117 0.013988315 -0.02579092
-0.07784812 0.154234 -0.12713411 0.20516272 -0.11087783 -0.2938546 0.05359598 -0.0011797764
0.18910007 0.07222184 0.024863826 0.028200045 0.070173405 0.18422934 0.09016955 -0.09571835
0.009614053 -0.034608938 0.034762733 -0.05987607 0.2598186 -0.17204036 0.2482527 0.0043348405
-0.17292102 0.10899551 -0.12008193 0.15871547 0.09677862 0.15320505 -0.06126475 0.015020759
-0.33117664 0.20056811 0.25820053 -0.0038537718 0.05562089 0.17897919 -0.21632862 0.14805973
0.033952616 0.0077462187 -0.110469006 0.040001 0.050401885 0.16954023 0.013581713 0.01844871
0.041233897 0.13279173 -0.2111691 -0.11272007 0.0076141516 0.16642389 -0.00022615695 -0.06849337
-0.21598825 -0.05260151 -0.20805976 0.11952845 -0.08444515 -0.22722533 -0.14581178 -0.116828114
-0.23029093 -0.15021685 0.09760125 0.08838312 0.014495107 -0.06471341 0.13383302 -0.07822063
0.0819259 0.10765717 -0.257367 -0.086303875 0.18372668 0.12332796 -0.13081089 0.06563957
0.095708326 -0.08307074 -0.12995706 -0.02347262 -0.03052275 -0.031080374 0.15468839 0.038129155
-0.10384662 0.076041736 0.24957438 -0.010666218 -0.015829625 -0.20870405 -0.34935445 0.05219479
0.11222872 0.088942446 0.040922344 0.15053733 0.0155472355 -0.14820036 0.025384327 0.13901505
-0.16356167 -0.19223724 -0.031896897 -0.09155082 -0.08417736 -0.1040445 0.1165523 0.1509033
0.2178335 -0.19174282 -0.10871129 -0.14926004 0.06547731 -0.1194083 0.053651225 -0.40089637
0.20565866 -0.05929562 0.15075257 -0.21930315 0.016738169 0.059276752 -0.13893431 -0.2663938
0.08981024 -0.006885487 -0.1871978 0.032395475 0.16687408 0.007266583 0.082881935 0.17951258
0.11183109 -0.28611982 -0.095972 -0.025942482 0.11295275 -0.033891868 -0.09295224 -0.20891137
0.0035761034 0.18010023 0.05339294 0.198667 -0.19224574 -0.19490328 -0.114556514 -0.25044078
-0.24214706 -0.20240654 0.18495634 -0.23737672 0.121377915 -0.16327035 -0.22061716 -0.14248271
0.10112361 -0.08416253 -0.23973562 0.1572181 0.048837375 0.042680312 0.044785414 0.07503588
-0.28793946 -0.34439325 0.056522995 0.1426967 0.1997478 -0.28253058 0.09325547 -0.08089857
0.16346212 -0.15833181 -0.024708409 0.119027525 0.18845375 -0.1984635 0.024274537 -0.21410055
0.18229388 0.08665599 0.20871018 0.036100153 -0.17560993 0.18842305 0.059735395 0.12468459
0.19594629 -0.008093412 0.06397397 -0.1094209 -0.24817254 -0.14518769 -0.1655301 0.081198886

sequential_2/dense_8/MatMul f4 [3, 32]
00000000: 0896 3abe 727d 6abd 806f 7e3e 0b61 693e
00000010: a4e1 253e 5ad6 923e 4a4e 223d 6e36 15be
00000020: 4caf 853e 2c8f 98bd 563c 45be 09f5 3c3d
00000030: afb2 f6bc deb3 99be 481e 89be ea95 ea3d
00000040: 49b2 21be a950 1dbc 8b33 50bd 0c58 823e
00000050: f51a 15be 0441 1d3d 2cfa 653e 7cbf 2abe
00000060: 4dbe be3d 8657 1fbe 5997 15be 5f30 0e3d
00000070: 795a 843e c7b7 2e3c 5e38 72bd 067d 6c3d
00000080: 2372 9ebe 592c 7ebe d70a 913e 9f69 8f3d
00000090: 966f b03c 3d56 a33e 15f4 5d3c c4fc 76be
000000a0: 1134 613e fc48 30be 6572 b43d 6ae6 a83e
000000b0: 6dbd 69be 2893 87be 35ba 7fbd 1c07 dd3b
000000c0: 5185 05bd 5160 6abd 62ab adbc dafe b63c
000000d0: 9e15 abbd af3d 61bd 0687 863e 43aa 17be
000000e0: 9742 ec3d 7fd7 043d 8edc 32be ceea 3e3e
000000f0: eb97 293d 9baf a83e f6f8 d73d 84f4 083e
00000100: 223d 13be 563c 9cbe e943 a13e 3648 67be
00000110: 317b 1c3e c19f 813e 3c79 653e 62f2 95be
00000120: c013 9bbc 4f1a 6abd 7f25 70bc 1116 973e
00000130: e496 16be 0e11 83be e91b 71be 699d 95bd
00000140: 6bee ccbd 1b8d 55bd 4bc2 703e e006 d23d
00000150: 48ea 2d3d c644 e6bc 9f2d 7b3e 5d7e cbbd
00000160: 7212 34bd 31bd 193e 9989 0b3e 505a a0bc
00000170: d761 283e 107b 913e 56bf d13d 2eff d63c
-0.18221295 -0.05724854 0.24847221 0.22790925 0.16199356 0.28679162 0.039625444 -0.14571545
0.26110303 -0.07449183 -0.19261298 0.04613212 -0.0301145 -0.3002004 -0.26780915 0.11454375
-0.15790667 -0.00960175 -0.050830405 0.254578 -0.14561065 0.03839208 0.22458714 -0.16674608
0.09313641 -0.15560731 -0.14608516 0.0347141 0.25850275 0.010663933 -0.059135787 0.05773642
-0.30946454 -0.24821605 0.28328583 0.070025675 0.021537583 0.31901732 0.013546963 -0.2411986
0.21992518 -0.17215341 0.088108815 0.32988292 -0.22826166 -0.2647946 -0.06243344 0.0067452323
-0.032597844 -0.05722076 -0.021199886 0.02233832 -0.083537325 -0.054990467 0.2627489 -0.14811043
0.115361385 0.032432076 -0.17466947 0.18644258 0.041404646 0.32946476 0.105455324 0.13374525
-0.14378789 -0.30514783 0.31497124 -0.2258614 0.15281369 0.25317195 0.22409528 -0.29286486
-0.018930316 -0.057153996 -0.014657377 0.29509023 -0.14705998 -0.2559895 -0.23545803 -0.07305414
-0.10006412 -0.05213652 0.23511617 0.102552176 0.042459756 -0.028108966 0.24529122 -0.09936211
-0.043962903 0.15013577 0.13626708 -0.019574314 0.16443573 0.28414202 0.102415726 0.026244726
